models/srcnn_model_ActionsSpaceTimeShapes.pth (torch, 83350 bytes, 6 tensors)

conv1.weight f4 [64, 3, 9, 9]
0.044277176 0.039690107 0.024334067 0.029084427 -0.04946786 0.029245382 0.014960384 -0.014521388
-0.051188637 -0.019176543 -0.048073493 0.05733659 0.029617224 -0.058150437 -0.008084972 -0.013599152
0.043696877 -0.006138518 -0.03374803 0.023967858 -0.040662497 -0.041956265 -0.041857958 -0.004643313
0.03214168 -0.05559058 0.03947926 -0.029655935 0.035615988 -0.0054327985 -0.033394936 -0.007903206
0.019420039 -0.012365561 0.029092638 -0.042376064 -0.042391326 -0.042858537 -0.033422247 0.042453665
-0.03855079 0.044129573 -0.037207607 -0.008823391 -0.040462077 -0.011543511 0.041753948 -0.0606379
0.05741558 0.02626263 0.0072724656 -0.024459746 0.0033136012 -0.0034143343 -0.03867326 0.029061304
0.056769557 0.053112302 -0.0015117109 -0.06974792 0.032841817 -0.0070347968 -0.03778668 -0.06226509
0.016931234 0.033415753 -0.063605756 0.003272309 -0.03934259 -0.009505549 0.005295031 0.028304389
0.015887622 -0.012576263 -0.0030689891 0.021785192 -0.0064693727 -0.051811185 0.024953626 -0.05106579
-0.026526125 -0.060053054 0.02618265 -0.009619328 -0.031471997 -0.031349555 0.0023007435 -0.0241774
0.030856257 0.02470525 -0.034231313 -0.054233894 0.004881191 -0.0465745 -0.002638855 -0.011387011
0.00789242 -0.06312271 0.012601267 0.04256101 0.03865033 -0.057533246 -0.015623462 0.023580892
0.0054332367 -0.045859966 0.018435968 0.0166958 -0.00662874 0.013490078 0.038548965 0.021534922
-0.009388093 0.030158462 -0.05034 -0.031792164 -0.007834905 -0.046860196 -0.021773625 0.016064024
-0.065845475 -0.028478159 -0.04803696 -0.003914588 -0.021897675 -0.020366417 0.01578302 0.042442042
-0.04749747 0.0021948954 0.002046401 0.050261922 -0.06037677 0.01926612 0.017733132 -0.004418135
0.0045488807 -0.05908944 0.03789413 -0.012459509 -0.021243926 0.018171508 -0.0037423356 0.04152298
-0.03814043 -4.531103e-05 0.025561508 -0.0040788064 0.008615979 -0.042572256 -0.0073468685 0.041330606
-0.036204636 -0.057370506 0.038620375 -0.031276617 0.011516214 -0.055116564 0.03535726 0.03845726
0.04635875 0.018500738 0.051353693 0.009669754 -0.025501017 0.017394 -0.006403039 -0.06405997
-0.052099913 0.03421499 -0.007719166 -0.022134565 -0.054501627 -0.0070366124 -0.0151630575 -0.050427288
-0.047711466 -9.3797695e-05 -0.032467585 -0.06397303 0.0048044454 -0.059932698 0.0060996218 0.0396575
-0.0031334895 0.0065851416 -0.052605357 0.0461465 -0.019614026 0.026143854 0.05013539 0.017143205
0.018773263 0.0425393 0.037939522 -0.03931624 -0.03497463 0.043317672 0.017045697 0.043371264
-0.0471051 0.022429122 -0.03773117 0.0049871933 0.05553621 -0.04114666 -0.060951464 0.020181322
-0.064130396 0.007918675 -0.03466904 -0.02354823 -0.0042958753 -0.003189387 0.022527404 0.02458536
0.006481248 -0.06299038 0.018023089 0.017360454 -0.016243381 0.011798202 -0.028397763 -0.007921243
0.038888942 -0.037648983 0.04542313 -0.031412367 -0.062285908 -0.049341273 0.045719694 -0.02086657
-0.067548 -0.031072527 0.04957713 -0.055257328 -0.037520744 -0.06944925 -0.010401136 0.0024292192
-0.055327397 -0.05501959 0.012931208 -0.054276414 -0.013594312 0.0429498 0.059137307 0.046324134
-0.062526956 -0.021020433 -0.06370797 0.041124646 0.038348503 0.04266715 -0.036347333 0.014160855
00000000: fc5b 353d 1892 223d 3d58 c73c 7742 ee3c
00000010: d09e 4abd 0394 ef3c 661c 753c 1eeb 6dbc
00000020: 2dab 51bd 2018 9dbc b6e8 44bd c6d9 6a3d
00000030: d29f f23c 272f 6ebd d576 04bc face 5ebc
00000040: 7ffb 323d 9f25 c9bb 603b 0abd 3e58 c43c
00000050: b88d 26bd 55da 2bbd 4073 2bbd ef26 98bb
00000060: ffa6 033d f3b2 63bd 01b5 213d 01f1 f2bc
00000070: 12e2 113d 9e05 b2bb 21c9 08bd 737c 01bc
00000080: c616 9f3c ec98 4abc af53 ee3c 8692 2dbd
00000090: 87a2 2dbd 6f8c 2fbd c4e5 08bd e5e3 2d3d
000000a0: 6fe7 1dbd 36c1 343d 0167 18bd fc8f 10bc
000000b0: 90bb 25bd ff20 3dbc 3006 2b3d 725f 78bd
000000c0: 992c 6b3d ba24 d73c dd4d ee3b ce5f c8bc
000000d0: 0129 593b 06c3 5fbb da67 1ebd f911 ee3c
000000e0: 3287 683d 498c 593d 9a24 c6ba ffd7 8ebd
000000f0: 2485 063d 2784 e6bb 35c6 1abd ae09 7fbd
00000100: 5fb3 8a3c f5de 083d bc43 82bd 3c74 563b
00000110: b225 21bd 2abd 1bbc f081 ad3b 9bde e73c
00000120: c226 823c ac0c 4ebc 1821 49bb dc76 b23c
00000130: 08fd d3bb f737 54bd 8c6b cc3c 5d2a 51bd
00000140: 514d d9bc 31fa 75bd ff7c d63c 639a 1dbc
00000150: c8e8 00bd 6468 00bd 12c8 163b af0f c6bc
00000160: 43c6 fc3c aa62 ca3c 2236 0cbd 5c24 5ebd
00000170: 66f2 9f3b e7c4 3ebd a4f0 2cbb 9690 3abc
00000180: 354f 013c 7b46 81bd 8b75 4e3c 7454 2e3d
00000190: cf4f 1e3d fba7 6bbd 8df9 7fbc b72c c13c
000001a0: 4b09 b23b a9d7 3bbd 0707 973c a1c5 883c
000001b0: e735 d9bb 7d05 5d3c 85e5 1d3d 016a b03c
000001c0: 84d0 19bc e10e f73c 5131 4ebd 8038 02bd
000001d0: f95d 00bc 7af0 3fbd 9a5e b2bc b398 833c
000001e0: fed9 86bd 074b e9bc 67c2 44bd f245 80bb
000001f0: c162 b3bc 79d7 a6bc 644b 813c b5d7 2d3d
00000200: b58c 42bd 3cd8 0f3b e91c 063b 72df 4d3d
00000210: a24d 77bd fbd3 9d3c 1345 913c 01c6 90bb
00000220: c70e 953b c507 72bd e036 1b3d f822 4cbc
00000230: be07 aebc 6adc 943c f941 75bb 0014 2a3d
00000240: 2439 1cbd 590c 3eb8 5e66 d13c 82a7 85bb
00000250: 092a 0d3c 3f60 2ebd 00be f0bb 484a 293d
00000260: 504b 14bd 56fd 6abd 6630 1e3d e91b 00bd
00000270: 81ae 3c3c e8c1 61bd c6d2 103d 5c85 1d3d
00000280: ace2 3d3d dc8e 973c 4058 523d e36d 1e3c
00000290: 82e7 d0bc dd7d 8e3c 96d0 d1bb e031 83bd
000002a0: b866 55bd 0425 0c3d 0ff1 fcbb 8c53 b5bc
000002b0: 193d 5fbd 6293 e6bb 796e 78bc d88c 4ebd
000002c0: 196d 43bd 41b5 c4b8 bbfc 04bd 4b04 83bd
000002d0: 9c6e 9d3b fd7b 75bd 56df c73b e76f 223d
000002e0: 3b5b 4dbb 2cc8 d73b b778 57bd 1d04 3d3d
000002f0: 98ad a0bc a32b d63c c45a 4d3d e86f 8c3c
00000300: 63ca 993c b03d 2e3d 7966 1b3d 110a 21bd
00000310: 8f41 0fbd df6d 313d 6ba3 8b3c 11a6 313d
00000320: 47f1 40bd 47bd b73c 008c 1abd 9c6b a33b
00000330: f079 633d 6689 28bd 3ea8 79bd 4d53 a53c
00000340: cc56 83bd 55bd 013c 2001 0ebd 38e8 c0bc
00000350: 6ac4 8cbb 0905 51bb 648b b83c 3d67 c93c
00000360: a660 d43b 1a01 81bd 28a5 933c 8337 8e3c
00000370: d710 85bc 3f4d 413c 6da2 e8bc 1ac8 01bc
00000380: 034a 1f3d d235 1abd 9b0d 3a3d 41aa 00bd
00000390: 821f 7fbd 131a 4abd 9344 3b3d 5ef0 aabc
000003a0: 9b56 8abd d08b febc 6311 4b3d 8255 62bd
000003b0: 5aaf 19bd 693b 8ebd 8769 2abc 8933 1f3b
000003c0: fb9e 62bd 395c 61bd 6bdd 533c f250 5ebd
000003d0: adba 5ebc 21ec 2f3d f639 723d 60be 3d3d
000003e0: 220e 80bd 0b33 acbc 5379 82bd 5172 283d
000003f0: 5213 1d3d c0c3 2e3d f1e0 14bd ee02 683c

conv1.bias f4 [64]
0.030938445 -0.045432772 -0.019979144 0.008696115 0.027160132 0.0064692786 -0.04129647 -0.1063882
0.0730196 -0.10225703 -0.118337266 0.039380126 0.040681098 -0.048494622 0.063718 0.04017503
-0.07019402 -0.042039633 0.032026578 -0.09592308 0.037640262 0.017109372 0.007163647 0.039795514
0.029946433 -0.11266765 -0.065888114 -0.07708491 -0.035552643 -0.030805722 0.032222737 -0.061954524
0.002240075 0.1111728 -0.029845478 0.016873494 0.039218903 -0.04037506 -0.028037585 -0.07489852
0.048834153 -0.051192876 -0.002999938 0.0040351716 0.09530919 0.030726794 -0.02165702 -0.022866795
-0.020699602 -0.02589332 -0.09292579 -0.058438268 -0.009668783 0.00447419 -0.06360875 -0.13027515
-0.062788926 -0.10612007 0.008775737 0.009905753 -0.055248808 -0.045092374 0.008951784 0.014344043
00000000: 9f72 fd3c b717 3abd 4dab a3bc 267a 0e3c
00000010: ed7e de3c 3efc d33b 7d26 29bd 0ee2 d9bd
00000020: 4d8b 953d 226c d1bd cf5a f2bd 0e4d 213d
00000030: 39a1 263d 4ca2 46bd 957e 823d 928e 243d
00000040: e2c1 8fbd c031 2cbd 4d2e 033d 5273 c4bd
00000050: ad2c 1a3d f428 8c3c 07bd ea3b 9f00 233d
00000060: 3952 f53c 4cbe e6bd 59f0 86bd b1de 9dbd
00000070: a69f 11bd 485c fcbc fdfb 033d 07c4 7dbd
00000080: 39ce 123b 91ae e33d 817e f4bc 483a 8a3c
00000090: 00a4 203d 5260 25bd 14af e5bc 6564 99bd
000000a0: 5206 483d 9faf 51bd 9c9a 44bb 7939 843b
000000b0: 7731 c33d c2b6 fb3c 106a b1bc 2553 bbbc
000000c0: 3692 a9bc 3a1e d4bc e04f bebd f75c 6fbd
000000d0: d169 1ebc 3a9c 923b 4e45 82bd d966 05be
000000e0: 7b97 80bd 7b55 d9bd 1cc8 0f3c bd4b 223c
000000f0: 934c 62bd c8b2 38bd 81aa 123c 4703 6b3c

conv2.weight f4 [32, 64, 1, 1]
-0.07245324 -0.08962172 0.07810513 -0.09754311 -0.0105090905 0.1366296 0.05380969 -0.14175268
0.038923867 -0.063675314 -0.05197769 0.076192535 0.11719049 -0.04582197 -0.12514621 -0.040477224
-0.13292256 0.08581953 0.038551785 0.17297046 -0.039279785 0.034314163 0.039537463 0.03298578
0.012978052 0.09145316 0.008954296 -0.11624602 -0.07900608 0.029493386 0.055912424 -0.09598608
0.04437857 0.2351366 0.00064540235 -0.3051994 0.032557424 -0.11007046 -0.048017513 -0.029241059
-0.32379267 -0.024095418 0.08714865 -0.094420046 0.23470323 -0.0035810273 0.016866928 -0.052307326
0.10930558 -0.10751266 0.31280267 0.07801483 -0.002616403 0.034611247 -0.053192962 0.101483434
0.07554266 0.10621064 -0.0007724427 0.033492316 0.04182259 0.061407033 0.35998794 0.12132559
0.1041943 -0.10560672 0.10476573 0.08896618 -0.18674581 -0.8695891 -0.039273966 0.053872377
0.016193202 -0.23962241 0.07230257 0.08098391 -0.021008268 -0.07870197 -0.1410444 -0.08420412
-1.0047332 -0.7523058 -0.11963962 -0.14356774 0.09175475 -0.12431439 -0.10932556 0.0757778
0.086956486 0.06596606 -0.09034358 -0.08862054 0.013410907 -0.0824838 0.094396204 0.07704876
0.106430665 0.0873169 0.35176474 0.21916614 0.043334037 0.036274806 -0.043679677 -0.1018739
0.17063916 -0.056311384 -0.09140012 -0.01098901 -0.031195218 -0.024115566 -0.07837193 -0.11299577
-0.0074102473 -0.2313555 0.0505689 -0.24055465 0.051351786 -0.11158645 0.09286069 -0.20194682
0.9291841 0.17210236 0.2211661 0.023673033 0.31027183 -0.11975798 -0.13149266 0.113582104
0.08033622 0.07874617 0.028763292 0.11911958 0.11429641 -0.0012879472 -0.004922948 0.02162911
-0.019660775 -0.119489826 -0.1439303 0.008951602 0.1283812 0.05573049 0.08303724 -0.096029684
0.06325942 0.117945746 0.09680442 0.10097237 -0.05461368 0.005609732 -0.020190677 -0.009456601
0.11422356 0.023627464 0.028922882 -0.05592507 -0.06702253 0.026956484 -0.088566706 -0.08848819
0.1167181 0.14668162 0.041611083 -0.53994966 -0.35395023 -0.06967608 -0.041745245 -0.048829433
-0.41483784 -0.0030445347 -0.0354354 -0.07018865 0.03189584 -0.04470411 -0.071132794 -0.025424631
-0.035308115 0.10105812 0.15100063 0.04129845 -0.10068589 0.017203206 -0.025196914 -0.01307958
-0.060986217 0.1771211 -0.3584412 0.06923506 -0.19973326 -0.14957793 0.51754266 -0.073698215
-0.06457257 0.045593306 0.0011560833 -0.16934992 0.18413155 0.5861968 -0.031827126 0.0071234484
-0.16180052 0.085517794 -0.044792674 -0.006760031 -0.04404228 -0.035413582 0.0703461 0.024786362
-0.0040895166 0.003835445 -0.09097658 0.28046608 -0.06285515 0.010535493 0.10125246 -0.11628282
-0.031167863 0.007202963 -0.027612748 0.11168652 0.04006087 0.0032575591 0.13564573 0.10480842
0.086443305 0.090635605 -0.21141273 -0.675431 0.12440718 0.12978978 0.005605639 -0.07001101
-0.38024718 0.17804548 -0.06495968 0.02640759 0.0936656 0.7741465 -0.021335281 -0.1401957
0.16485184 0.019973157 0.3700375 0.28532413 0.10998493 -0.07245704 0.046009462 -0.60210294
0.071414694 -0.22571293 -0.60040784 -0.043088265 0.49872917 -0.10589799 0.6737021 -0.07323603
00000000: 5d62 94bd 988b b7bd 95f5 9f3d afc4 c7bd
00000010: 522e 2cbc a1e8 0b3e 8d67 5c3d 9d27 11be
00000020: a26e 1f3d 3468 82bd 8fe6 54bd d50a 9c3d
00000030: 9101 f03d d1af 3bbd 5426 00be 72cb 25bd
00000040: da1c 08be 26c2 af3d 7ae8 1d3d 2b1f 313e
00000050: d7e3 20bd 028d 0c3d 09f2 213d 191c 073d
00000060: e5a1 543c cb4b bb3d 0ab5 123c 6512 eebd
00000070: f1cd a1bd 1d9c f13c 6d04 653d 5a94 c4bd
00000080: 4ec6 353d a6c7 703e 3830 293a 1943 9cbe
00000090: ef5a 053d 9f6c e1bd 03ae 44bd f28a efbc
000000a0: 27c8 a5be c163 c5bc fe7a b23d 4c5f c1bd
000000b0: 0b56 703e abaf 6abb 832c 8a3c 3540 56bd
000000c0: 9bdb df3d 992f dcbd ac27 a03e 3dc6 9f3d
000000d0: f577 2bbb 86c4 0d3d dde0 59bd 8cd6 cf3d
000000e0: 1cb6 9a3d f784 d93d c17d 4aba 3d2f 093d
000000f0: 2a4e 2b3d f185 7b3d 5750 b83e 8d79 f83d
00000100: d263 d53d 5648 d8bd 6a8f d63d e733 b63d
00000110: 4b3a 3fbe 649d 5ebf bddd 20bd 48a9 5c3d
00000120: 9ba7 843c 945f 75be 5f13 943d e4da a53d
00000130: 8819 acbc 802e a1bd f16d 10be 3673 acbd
00000140: 199b 80bf 1d97 40bf 9e05 f5bd 6c03 13be
00000150: eae9 bb3d 8b98 febd 14e6 dfbd 6431 9b3d
00000160: 3e16 b23d 3719 873d 0e06 b9bd b07e b5bd
00000170: 6cb9 5b3c 44ed a8bd cc52 c13d becb 9d3d
00000180: 52f8 d93d 34d3 b23d 821a b43e 176d 603e
00000190: 087f 313d e494 143d 76e9 32bd 43a3 d0bd
000001a0: 08bc 2e3e c4a6 66bd fc2f bbbd 400b 34bc
000001b0: 1d8d ffbc 028e c5bc 7681 a0bd 546a e7bd
000001c0: a9d1 f2bb 75e8 6cbe 5621 4f3d f553 76be
000001d0: 4056 523d 7087 e4bd bf2d be3d 26cb 4ebe
000001e0: 02df 6d3f 9a3b 303e 5e79 623e f3ed c13c
000001f0: f3db 9e3e ac43 f5bd 03a6 06be bc9d e83d
00000200: 5187 a43d ac45 a13d ffa0 eb3c f7f4 f33d
00000210: 3c14 ea3d 56d0 a8ba ae50 a1bb 882f b13c
00000220: a20f a1bc 15b7 f4bd 7762 13be bda9 123c
00000230: 5c76 033e a745 643d 6e0f aa3d 36ab c4bd
00000240: 288e 813d 8a8d f13d 6541 c63d 9aca ce3d
00000250: 98b2 5fbd d8d1 b73b eb66 a5bc dcef 1abc
00000260: 0bee e93d 628e c13c aeef ec3c b011 65bd
00000270: 1c43 89bd d8d3 dc3c 7662 b5bd 4c39 b5bd
00000280: e609 ef3d b533 163e 6270 2a3d 243a 0abf
00000290: f738 b5be 55b2 8ebd 10fd 2abd 5f01 48bd
000002a0: a065 d4be d186 47bb b624 11bd 11bf 8fbd
000002b0: 36a5 023d a81b 37bd 12ae 91bd 5147 d0bc
000002c0: 3e9f 10bd 8ff7 ce3d e99f 1a3e 9028 293d
000002d0: 6734 cebd bded 8c3c c269 cebc bc4b 56bc
000002e0: afcc 79bd 3c5f 353e 9b85 b7be 1ccb 8d3d
000002f0: e086 4cbe f52a 19be ad7d 043f 17ef 96bd
00000300: a03e 84bd 0cc0 3a3d b887 973a 116a 2dbe
00000310: fb8c 3c3e fe10 163f 295d 02bd d16b e93b
00000320: 09af 25be f423 af3d 8678 37bd 4083 ddbb
00000330: ae65 34bd d50d 11bd 9e11 903d c50c cb3c
00000340: 5a01 86bb 175c 7b3b ee51 babd 4099 8f3e
00000350: 33ba 80bd 0f9d 2c3c 735d cf3d b025 eebd
00000360: bf53 ffbc d506 ec3b 2134 e2bc e7bb e43d
00000370: de16 243d c67c 553b b7e6 0a3e cca5 d63d
00000380: 3009 b13d 299f b93d 947c 58be 0ce9 2cbf
00000390: 31c9 fe3d 9de7 043e 82af b73b ef61 8fbd
000003a0: c2af c2be 8e51 363e 9509 85bd bb54 d83c
000003b0: c0d3 bf3d 772e 463f 54c7 aebc 768f 0fbe
000003c0: ecce 283e bf9e a33c 8e75 bd3e 0116 923e
000003d0: c73f e13d 5b64 94bd 6b74 3c3d 6b23 1abf
000003e0: de41 923d 4a21 67be 54b4 19bf 527d 30bd
000003f0: 6e59 ff3e 0ce1 d8bd be77 2c3f c6fc 95bd

conv2.bias f4 [32]
-0.0046034423 0.00084996957 -0.02329178 -0.052109543 -0.104031034 0.1036787 -0.048556343 -0.14265424
0.018780582 -0.003958367 0.04857854 0.05980843 0.052446995 -0.039457932 -0.0153950285 0.094966464
-0.07064913 0.018461352 0.03513715 0.009209337 0.06141978 -0.015188399 0.055380832 0.04803354
0.02140831 -0.043023888 -0.07394135 0.03907358 0.021578703 0.09278018 0.0010363823 0.010540408
00000000: 79d8 96bb 7ed0 5e3a 67ce bebc d170 55bd
00000010: 390e d5bd 8055 d43d 04e3 46bd f413 12be
00000020: bcd9 993c 30b5 81bb 4bfa 463d aff9 743d
00000030: a9d2 563d a49e 21bd 6e3b 7cbc c77d c23d
00000040: 7eb0 90bd 433c 973c f9eb 0f3d c2e2 163c
00000050: 4f93 7b3d c3d8 78bc 03d7 623d d1be 443d
00000060: 7b60 af3c d139 30bd 906e 97bd 9e0b 203d
00000070: d2c5 b03c 8903 be3d 38d7 873a adb1 2c3c

conv3.weight f4 [3, 32, 5, 5]
0.021328777 0.052879054 0.02717223 -0.008631723 -0.10098665 0.05977859 0.0041072685 0.021325024
0.03619313 -0.056856282 -0.07697186 -0.046900295 -0.026785688 -0.05536596 0.0155015355 -0.028786117
0.061140377 0.014353638 -0.01175854 0.05333946 0.04246229 0.010729656 -0.12063509 -0.0135568455
0.017236503 0.10707436 0.09261646 0.14507937 0.05267453 0.016262883 -0.03483359 0.009725671
-0.3928984 0.0005423833 0.029274976 -0.2750458 -0.025012106 0.073361374 -0.013978224 -0.0070541305
-0.1014895 -0.050398093 0.09141165 -0.00553351 0.030596375 0.06000973 -0.029044643 -0.13507444
0.1613346 0.011008371 -0.03133043 0.0020819728 0.0063375165 0.0510627 -0.014810367 -0.014073478
0.0152412 -0.044961147 -0.014509099 -0.0069303364 -0.029919645 0.05626468 -0.09016721 0.01614593
0.027491309 -0.025303446 0.047510564 -0.03988353 0.010465945 -0.03594159 0.017670505 -0.016388882
-0.034148242 0.026750276 -0.0006580042 0.005821764 0.015353661 -0.10436948 0.046670858 -0.021011958
-0.041214187 0.009129233 -0.062034935 0.028438004 0.0134531325 -0.083065346 -0.023655077 0.015146794
0.08799236 -0.10059652 0.026235057 -0.086384825 -0.053950485 -0.09852168 -0.031078931 0.047420356
-0.05972888 0.03142022 -0.0022419663 -0.035736218 -0.017382966 -0.033304185 -0.018683562 -0.072070315
-0.0058896663 -0.031786256 -0.03373045 0.06358833 -0.015672887 -0.035457168 0.0006967711 -0.057512373
0.024853544 -0.0100104045 -0.076349184 -0.018872848 -0.017077977 0.009200448 0.055677023 -0.11483142
-0.005750261 -0.05616561 0.009484498 -0.0029053479 -0.020651959 -0.03614626 0.0038219292 0.06888026
0.00044451046 -0.02399143 -0.01548989 -0.03158939 0.004057531 0.0044795456 -0.018729704 0.041461967
-0.010721335 -0.020704696 0.027782377 0.05656468 0.009179021 0.065446846 0.04203752 -0.037033312
0.03952991 0.03431961 -0.06064457 -0.0004681077 -0.032732178 -0.040827755 0.01186473 -0.024483126
-0.017155712 -0.0062806252 0.010927923 -0.00010972526 0.024631118 0.051465444 0.026219776 -0.0039775823
-0.046988312 -0.0033037893 0.02118299 -0.018699631 0.015686711 -0.08329405 -0.03406877 0.03004015
-0.08023142 -0.012132356 -0.011953639 0.057295006 0.03079588 -0.006231141 0.029805878 -0.10322463
0.18487334 -0.038854457 -0.10059657 0.038724825 -0.029355744 0.13897459 0.028537475 0.022680597
0.010138226 -0.017732384 0.16340838 0.002801719 0.08226955 0.22094959 -0.0108735785 0.027318522
0.04559855 0.045112364 0.048445437 0.028871348 -0.013097649 0.004321597 0.030679379 0.025565935
-0.022800202 0.022789003 0.046786457 -0.012508189 -0.015949724 -0.021231107 -0.007874007 -0.023597864
-0.023313478 -0.05337585 -0.019137282 0.042811353 0.11640657 0.019848635 0.07457807 0.022733163
0.014387859 0.06872001 -0.051855545 -0.0012566206 -0.0164477 -0.0026217343 0.017339654 -0.049081646
0.0067119 0.034247193 0.0756442 -0.019896446 0.060926646 0.030811602 -0.01438737 -0.029057318
-0.0317202 0.024922501 0.039248686 -0.06819493 0.018118802 -0.03437857 0.001216659 -0.072022416
-0.013812395 0.016435439 -0.078696825 -0.0447282 0.022977933 0.02381052 0.039476946 -0.027214196
0.0092534665 0.023646394 0.04263799 0.011984276 -0.045794986 -0.016450088 -0.011415429 0.050608374
00000000: b0b9 ae3c b597 583d 4c98 de3c 126c 0dbc
00000010: 17d2 cebd 65da 743d 4496 863b d1b1 ae3c
00000020: 3f3f 143d 22e2 68bd 6ca3 9dbd 861a 40bd
00000030: a96d dbbc 6bc7 62bd 27fa 7d3c ddd0 ebbc
00000040: 556e 7a3d 852b 6b3c e4a6 40bc 7a7a 5a3d
00000050: f0ec 2d3d 70cb 2f3c 880f f7bd 881d 5ebc
00000060: 9133 8d3c cd49 db3d b3ad bd3d b08f 143e
00000070: 3fc1 573d bd39 853c abad 0ebd 6c58 1f3c
00000080: fb29 c9be ba2e 0e3a 13d2 ef3c ced2 8cbe
00000090: 30e6 ccbc 7d3e 963d ec04 65bc 5626 e7bb
000000a0: bad9 cfbd 3b6e 4ebd 0836 bb3d 7252 b5bb
000000b0: 40a5 fa3c c3cc 753d 08ef edbc f450 0abe
000000c0: e634 253e 745c 343c 5654 00bd b571 083b
000000d0: f1aa cf3b 1f27 513d 2ea7 72bc 7294 66bc
000000e0: 3ab6 793c 2e29 38bd 92b7 6dbc e017 e3bb
000000f0: 0b1a f5bc cb75 663d 96a9 b8bd 7844 843c
00000100: 7435 e13c 2c49 cfbc 709a 423d ea5c 23bd
00000110: 5b79 2b3c 7d37 13bd bcc1 903c fa41 86bc
00000120: 07df 0bbd 6523 db3c ea7d 2cba 7fc4 be3b
00000130: ec8d 7b3c aabf d5bd f129 3f3d 4521 acbc
00000140: 35d0 28bd c792 153c 5818 7ebd d1f6 e83c
00000150: 876a 5c3c 2a1e aabd 4bc8 c1bc 422a 783c
00000160: 5735 b43d 8c05 cebd e7ea d63c 87ea b0bd
00000170: 2ffb 5cbd bcc5 c9bd 3e99 febc d93b 423d
00000180: 45a6 74bd 7db2 003d f4ed 12bb 2460 12bd
00000190: b966 8ebc f869 08bd 450e 99bc 9a99 93bd
000001a0: 1afe c0bb 4e32 02bd f128 0abd 993a 823d
000001b0: 6d64 80bc 893b 11bd 84a7 363a 1892 6bbd
000001c0: a999 cb3c ae02 24bc f65c 9cbd 3b9b 9abc
000001d0: 1de7 8bbc 7abd 163c 970d 643d bc2c ebbd
000001e0: af6c bcbb e90d 66bd de64 1b3c a667 3ebb
000001f0: 4c2e a9bc 1a0e 14bd 5579 7a3b 1811 8d3d
00000200: 2f0d e939 ad89 c4bc 4fc9 7dbc e063 01bd
00000210: 09f5 843b 27c9 923b 096f 99bc 06d4 293d
00000220: 8aa8 2fbc e59c a9bc de97 e33c 5eb0 673d
00000230: 9b63 163c ff08 863d 892f 2c3d 3eb0 17bd
00000240: 1dea 213d b892 0c3d 7166 78bd 5a6c f5b9
00000250: 2d12 06bd 013b 27bd 4964 423c d690 c8bc
00000260: 238a 8cbc b4cd cdbb 080b 333c 4d1c e6b8
00000270: 33c7 c93c 6ecd 523d dbca d63c 6156 82bb
00000280: d176 40bd 6384 58bb f387 ad3c f82f 99bc
00000290: 6b81 803c 1296 aabd b28b 0bbd c316 f63c
000002a0: 5f50 a4bd cac6 46bc 32d9 43bc 2bae 6a3d
000002b0: a447 fc3c 992e ccbb 752b f43c 6f67 d3bd
000002c0: 704f 3d3e da25 1fbd 9305 cebd ec9d 1e3d
000002d0: 757b f0bc 5b4f 0e3e 6cc7 e93c a9cc b93c
000002e0: cd1a 263c 8143 91bc 8754 273e 0b9d 373b
000002f0: f07c a83d 9c40 623e 1827 32bc 18cb df3c
00000300: 8cc5 3a3d bec7 383d b96e 463d 9b83 ec3c
00000310: 8697 56bc 2f9c 8d3b 5253 fb3c a76f d13c
00000320: 7dc7 babc 01b0 ba3c 28a3 3f3d 26ef 4cbc
00000330: ffa8 82bc dcec adbc fb01 01bc 4f50 c1bc
00000340: e8fb bebc a3a0 5abd cac5 9cbc f55a 2f3d
00000350: 9166 ee3d 9b99 a23c 63bc 983d e63a ba3c
00000360: 0ebb 6b3c 14bd 8c3d 7b66 54bd 31b5 a4ba
00000370: 54bd 86bc 67d1 2bbb e40b 8e3c d609 49bd
00000380: 7fef db3b c946 0c3d 59eb 9a3d dffd a2bc
00000390: 388e 793d 9d68 fc3c 01b9 6bbc 9d09 eebc
000003a0: 0aed 01bd 462a cc3c 3bc3 203d c9a9 8bbd
000003b0: e26d 943c 8bd0 0cbd 4d78 9f3a 7d80 93bd
000003c0: 624d 62bc 9da3 863c cd2b a1bd eb34 37bd
000003d0: 383c bc3c 480e c33c 94b2 213d 4ef0 debc
000003e0: da9b 173c 15b6 c13c 2ca5 2e3d b259 443c
000003f0: 8693 3bbd 56c2 86bc c807 3bbc ba4a 4f3d

conv3.bias f4 [3]
-0.016702272 0.02688117 0.030564407
00000000: 34d3 88bc e635 dc3c 3562 fa3c
