models/srcnn_model.pth (torch, 83056 bytes, 6 tensors)

conv1.weight f4 [64, 3, 9, 9]
00000000: 4b4c 2cbd ab4e 293d 9ad4 d33d 25d4 a4bd
00000010: 1062 d33b 8a0c df3c 77ef b63c 4768 5fbd
00000020: d738 d53c 52ff f53b c66c 103d f53e 3dbd
00000030: 50b6 16bd b1c3 14bd c010 e53c 8576 a93d
00000040: 3644 b13a 901b 5e3d 2d2b 463d db56 44bd
00000050: 825c 8dbd e54a 1aba 9dd5 fe3d 7913 1e3c
00000060: e2b2 12be 830f a3bd 6e56 a9bc 930b 18bc
00000070: d7df f93c 4a34 6a3c 08e7 eb3d 9ddf 0fbe
00000080: 5cb6 8e3d 1a17 7f3d c0be 9b3d 765d bebc
00000090: ca10 f73c 8aad 2abc 7a4a 8e3c e3ff ac3c
000000a0: 34b2 bfbd 9205 1b3c 1ec9 5a3d 0afd 0bbd
000000b0: 6cc4 673d f3ed 4a3d bb43 d1bd 10d1 1abd
000000c0: d9a8 6c3d 808f 88bd 629d 393e 65ab 383e
000000d0: 5f2a cebc 3347 b63d ebee 7abd 398e 993d
000000e0: 3575 a1bd 25ae d3bd 0fbf d4bc 35ce ba3e
000000f0: 3b11 dd3e 3755 b83c f694 c83d 8817 cd3c
00000100: e2f3 8d3c 9975 c23c 1a6a 793b 3b94 653d
00000110: 9ddc 2abd 32b3 193d 48ee 40ba 6666 0abc
00000120: fa46 e23c c904 9ebc 7a2c f7bb e3ca ccbc
00000130: 80b8 e63c f9d9 4cbd 397b 42bc 75be 4f3d
00000140: 29e1 1d3d fe07 893c 820f 4cbd 506c b4bc
00000150: 6e47 ee3c 226c 90bc 7f8d 90bd be3c df3b
00000160: 5a28 553d 3003 3bbd 5011 c0bb d096 0b3d
00000170: 9a46 49bd af16 69bc bab9 ae3d e523 3fbc
00000180: 01c5 1dbd 9634 0e3c f6b8 fabb 9730 acbb
00000190: 6318 2fbc 144b 223d d283 c83a aac1 c83d
000001a0: 3eb4 2ebd 9f42 99bc 99aa 5a3d 9449 f8bc
000001b0: 8362 2fbd 1902 db3c 9f05 64bd ee96 cc3d
000001c0: a26c a8bd 025d ccbb 36c2 9dbd fa2d 803d
000001d0: 586a 1e3c 66d8 073c 9cb8 70bc 2154 bf3d
000001e0: 629f f1bd e391 c6ba f33b 47be 9d84 333d
000001f0: 6454 e2bc 580f 81bd 0270 b5bc 0332 863c
00000200: f971 e13c d990 943d dc45 363d d0b6 25be
00000210: abc8 6ebe c314 73bc d9d2 13bd f26c 85bb
00000220: 347c 78bb 72a3 253c 9a46 433d 5231 9fba
00000230: 408b 82be 1e40 fdbe 4613 ffbd 9599 aebd
00000240: 4de0 82bc b2a7 7b3c 0f2e 783c 475b fdbc
00000250: ddc4 72bc 07b6 dbbc 128a 01be ea1c cebc
00000260: 8220 68bb 6ba5 00bc f846 5cbd 68e6 b63d
00000270: 423a 993c 465a 6e3c ed7e 38bb 2d92 1a3c
00000280: 375b 5abd 68ae fdbc 87f7 083d b023 edbc
00000290: 29e5 8e3c 1e2a 373c cd89 943c cdd6 d73c
000002a0: 7bbf 403c 0847 8a3c f7ae 143d 0bd7 91bc
000002b0: a73c 6cbc 1489 b3bc 53ac b53d 83c8 24bc
000002c0: b3b1 f6bc 3379 96bc 98b2 54bd a888 8ebc
000002d0: 3a10 6abc 7e9e bc3a 07ed e43d 46ba f7bd
000002e0: e2a3 19be a18e 183d 26f1 273e f0be 5b3c
000002f0: 619f 753c 9d3b 833c fee1 203c 6d19 a0bd
00000300: 8372 943d 11db ebb9 c504 1e3d 85ea 38be
00000310: 82e7 aebb e9d1 17bc e687 f23c ccde 39bd
00000320: 0c79 4d3d 1559 7abd 3418 3d3e b45d 973c
00000330: eeff 113e ccab 5fbd 2467 d03c ecf2 c0bc
00000340: b0c2 953c 47d9 883d 419f 4bbe 1543 013e
00000350: 0626 cdbc 57e8 d83d e2f0 5f3d 61cf 31bd
00000360: 0d14 843d 2335 483c 498f 06bd 3f65 153e
00000370: 8d38 0b3d 18dc d0bd 97d2 3a3d a7ff a03d
00000380: 7b88 4e3d 97ca 3ebd 1955 083d 50c9 06bd
00000390: 4b28 acbc 82fb 51bd dedb f03d 1b30 273d
000003a0: d9b2 20ba 7057 7fbc 4de4 0eba b8ab 2cbc
000003b0: a336 7dbc c3ac 21bb 6d08 98bd a0f2 4c3d
000003c0: 11c8 91bc 3c18 003d 9221 033c 57b4 4b3d
000003d0: bf2c 31bc 08ac be3c 8a80 b03c f45a dcbc
000003e0: 52e9 873b 89f2 ddbb f586 313d 1fb2 4f3c
000003f0: 8733 353d fa77 bbbc cbca 413d 14a9 6d3d
-0.042064946 0.04133479 0.10343285 -0.08048276 0.006450899 0.027227659 0.022330983 -0.054542806
0.02602808 0.007507243 0.035259984 -0.04620262 -0.03679496 -0.03631944 0.027962089 0.08274559
0.0013524357 0.054225504 0.04838102 -0.047934394 -0.0690241 -0.0005885794 0.12443087 0.009648197
-0.14326051 -0.07961943 -0.020671096 -0.009280103 0.030502243 0.014294693 0.11518675 -0.14050145
0.06968376 0.06227789 0.07604742 -0.023237925 0.030159373 -0.0104173515 0.017369498 0.02111811
-0.093601614 0.009461777 0.053414457 -0.034176864 0.056583807 0.049543332 -0.10217997 -0.037797034
0.057778213 -0.066679955 0.18126443 0.18034132 -0.025166688 0.08900299 -0.061263006 0.0749783
-0.078836836 -0.1033595 -0.02597001 0.36485448 0.43177208 0.022501571 0.09794037 0.025035635
0.017328206 0.023737716 0.0038057626 0.056049567 -0.0417143 0.03752441 -0.00073597254 -0.008447265
0.027621735 -0.019289391 -0.007543144 -0.024999088 0.028164148 -0.050012562 -0.011870199 0.050718743
0.038544808 0.016727444 -0.049819477 -0.022024304 0.029086795 -0.017629687 -0.07058238 0.006812661
0.052040435 -0.045657337 -0.005861439 0.034079373 -0.049139597 -0.0142266 0.08531518 -0.011666273
-0.038517956 0.00867953 -0.0076514436 -0.005254816 -0.010686967 0.03962238 0.0015298075 0.098025635
-0.04265236 -0.018708525 0.05338535 -0.030308522 -0.042818557 0.026734399 -0.055669423 0.09989725
-0.08223845 -0.0062366733 -0.077030584 0.06258769 0.009668909 0.0082913395 -0.014692452 0.09342218
-0.11797978 -0.0015149679 -0.19456463 0.04382764 -0.027628131 -0.06301755 -0.022148136 0.01638127
0.027520167 0.0725419 0.044500217 -0.16183019 -0.23318736 -0.014836493 -0.036089752 -0.004071825
-0.0037915828 0.010109769 0.047674753 -0.0012145436 -0.25496864 -0.4946298 -0.12454848 -0.08525387
-0.015976096 0.015359806 0.0151477 -0.030927313 -0.014817444 -0.026820196 -0.12650326 -0.025160272
-0.0035419767 -0.007851939 -0.05377862 0.08930665 0.018704537 0.01454789 -0.0028151826 0.009434265
-0.053309646 -0.030966952 0.033439185 -0.028947681 0.017443256 0.011179475 0.018132115 0.026347542
0.0117644025 0.016879573 0.036299672 -0.017802736 -0.0144187575 -0.02191595 0.08870759 -0.010057571
-0.03011403 -0.01836834 -0.051928133 -0.017399147 -0.014286095 0.0014390496 0.11178022 -0.12096076
-0.15003923 0.037245397 0.16400585 0.013412222 0.014991612 0.016019637 0.009819506 -0.078173496
0.07248404 -0.0004498591 0.038578767 -0.18058212 -0.0053376565 -0.009266355 0.029605817 -0.04537849
0.050164267 -0.06112011 0.18466264 0.018477298 0.14257786 -0.054607198 0.025439806 -0.023553334
0.01828131 0.06682067 -0.1988497 0.12623246 -0.025042545 0.1059119 0.054673083 -0.043410663
0.06449137 0.0122197 -0.03285149 0.14589404 0.033989478 -0.101982296 0.04561099 0.07861262
0.050423127 -0.046579923 0.03328428 -0.03290683 -0.021015307 -0.051265247 0.11760686 0.04081736
-0.0006130166 -0.015584812 -0.00054508896 -0.010538988 -0.015454921 -0.0024669624 -0.07423482 0.050036073
-0.017795594 0.03127311 0.008003609 0.049732532 -0.010813891 0.02327539 0.021545667 -0.026898839
0.004147687 -0.006773297 0.043341596 0.012676745 0.044238593 -0.022884358 0.04731254 0.058022574

conv1.bias f4 [64]
00000000: 8b66 973a c199 4d3d 7cbc 633c e596 38bd
00000010: dab1 013d 1f55 e6bc ae0c 5fbd 0941 b43c
00000020: 8845 b73d 2cf9 71bd 6134 a93d 08e6 5cbd
00000030: ae63 58bc f098 8fbd b48b d2bc ce06 16bd
00000040: e478 28bc b68f 4abd 9104 643d 9eaf 5abd
00000050: cd45 5f3d 4b76 c8bc c931 90bd cc82 02bd
00000060: a8b8 a43d 552b 07bd 3cc7 6dbc e176 a83d
00000070: 2ea0 3c3d d369 293d eb07 d53d 6d39 70bd
00000080: d27e cb3d c1da 9fbc 602f bd3c 51b6 a1bc
00000090: ecd6 8f3d 32cc d93b c953 273d 4006 913c
000000a0: 103a 623b 8d5f b3bc 1c51 aabc 5b1f 45bd
000000b0: d2e3 423c bb8f 4cbd 8f28 1d3d 4f7e 49bd
000000c0: 586f d6bb 4b1c 5a3d b261 723d 880e fb3c
000000d0: e7f0 493d a2df 82bd 5cd7 5f3d 0950 e33d
000000e0: ebcf 38bd c694 4fbc 7627 16bc 3937 143d
000000f0: 6d09 81bd 1872 473b 542b d5bc 0750 fcbc
0.0011550946 0.05019546 0.013899919 -0.04506578 0.031663753 -0.02811676 -0.05445545 0.022003667
0.08948809 -0.05907552 0.082619436 -0.053930312 -0.013207359 -0.070115924 -0.025701381 -0.036627583
-0.010282729 -0.04945346 0.055668417 -0.053390138 0.054509927 -0.024470469 -0.07040746 -0.03186302
0.08043033 -0.03300031 -0.014512833 0.08225799 0.046051197 0.041360687 0.10401901 -0.058648515
0.099362984 -0.01951349 0.02309388 -0.019740256 0.07023415 0.0066466564 0.040851388 0.017703176
0.0034519471 -0.021896148 -0.02079063 -0.048125606 0.011895137 -0.04994176 0.038368758 -0.049192723
-0.006544035 0.05324964 0.0591752 0.030646577 0.049302008 -0.06390311 0.054648742 0.1109925
-0.04512016 -0.012669748 -0.009164682 0.036185477 -0.06300626 0.0030432995 -0.026021637 -0.030799879

conv2.weight f4 [32, 64, 1, 1]
00000000: 9843 863c 0e1a 733b 2de5 073d 80bf 333d
00000010: fd40 36bd 06a2 253d 6575 bd3d 2e54 ee3c
00000020: 8d63 05be 2a5c 5fbc 91de 803d a8ad 2d3d
00000030: 52c4 eabc 749c a73c 22fd babd 2337 23bd
00000040: 8328 04be 3a8d a53d 3f1e 35be ab7d e8bc
00000050: 515a c83e 9d44 d73d 02fe 363c 0028 d63d
00000060: cade 31bd a958 e7bd e057 c23d 0ca0 443e
00000070: 8c5f bf3d be4e b73d 9af1 413e e928 a03d
00000080: 4aa7 d8bd 4c7e 5f3d 6c95 30bd 4bff b4bd
00000090: f0c9 67bd 004f b0bd 0e86 8cbd 6573 f83d
000000a0: fc47 6f3d 7728 2ebd cb1b d23d 389f 44bd
000000b0: eab1 9a3e 5cdc 47ba 2205 36be 1210 d6bc
000000c0: 8cd0 a3bd c8fb 093e 106f 40bd e23e cb3e
000000d0: 55b7 ec3d f282 6d3d 6feb b63d d975 7abd
000000e0: d266 ea3d 417e aabd 56ac 973d 7f9a 3b3c
000000f0: 9354 113e 6d4a 893d 037c 5e3d 0094 c63c
00000100: 66db 47bd ab7d 90bb 61db a13d 01f4 9bbc
00000110: 326a 303d af01 97bd d4dc ee3d e785 b33d
00000120: c33a 7dbe dbc6 143d e339 3abd 059a 83bd
00000130: d310 07be 3af3 e23d edfe a13b 1f4c c1bd
00000140: af3c 973c 64a8 05be a8c2 88bd 0d2d 473d
00000150: bee4 193d dac9 ecbd b11c 363c 9c5e 0ebd
00000160: 6fd2 db3d f3f6 99bd acb1 dbbc 9b1e 5ebd
00000170: 41a6 9d3c 0fd4 04be 1168 dbbc b67c edbc
00000180: ada1 05bb cf8a 223d c2ae 6c3d 5801 d6bc
00000190: 7ad2 ddbc ed82 81bd e779 5e3d 627f 85bd
000001a0: 9a84 3fbc 0901 9fbd 1ed5 19bd 99aa 81bd
000001b0: 4290 13bd 237a 983d e862 f3bd 73ec bfbd
000001c0: 2133 4bbd 33b8 8abc 9ce0 9cbc 6170 483b
000001d0: a068 9abc ba66 ac3c fa55 cebd 10b2 c73c
000001e0: f81f 8c3d 8c6d d13d 7f5a dabd 8adf 80bd
000001f0: f85d 4e3e 01cb bb3d 6628 c63d d04a 103e
00000200: 156d 463c a356 d13d 02d4 d63d 2010 f33b
00000210: cc74 c3bd 4427 84bd c9da c53d 04bc 86bc
00000220: ff7b 533d 62c7 27bd cb94 e9bd 72cb a8bd
00000230: cc92 803c b79b e6bd e412 26bd b2e5 033e
00000240: 701b 77bd 6511 883d ef7e abbc 950f f0bd
00000250: 8665 6a3d 52d6 96bd 9139 a03c 6597 cfbc
00000260: ee4d 2dbe 9c8e a33d 5d65 c23c 6376 26bd
00000270: 3e45 6fbd 61c7 163d 6d4b 9b3e dd35 a7bd
00000280: 6f9f 333e c543 e03d f0bb 9e3d e648 b43d
00000290: 3458 2d3d 3db6 9f3d 854c 9d3d 5a42 f53d
000002a0: fb98 e03d ae42 54bb c6c9 06bb cb17 9a3d
000002b0: 2336 bbbd 1fef ccbd 1896 433d 2d58 0bbd
000002c0: 90c4 a0bd 7c0e fc3c 3afa de3d 38ed b9bd
000002d0: 296d bb3d 3496 a6bd 327d e2bd 64fc 27bf
000002e0: 104d 21ba c896 09bb 3ff5 203d 0414 733d
000002f0: f108 04bd a521 1fbd 7555 9fbd 3541 12be
00000300: e562 cabc 0166 133d 4eb9 aa3d 04df 013e
00000310: 2fd5 cbbd 9577 f63d f4e5 12bd d26b b5bd
00000320: 6f5c afbd b33e 34bd 56f3 f43b 261c bbbd
00000330: 1b4b e13d 93b7 afbd b195 1c3d 6ff2 953c
00000340: 07c8 9d3d 9dcf 9dbd 5398 be38 34f4 db3d
00000350: eb5c a23d 78f8 afbd da10 9fbc 6fce a43d
00000360: bf29 793d 879e 5cbd 1d67 17bd 818c 8ebe
00000370: ee69 e73d 1f31 943d 1ffb 613e ba49 72bd
00000380: 2999 183e cb28 a03d 740d 9c3c d357 f8bd
00000390: 8d43 a33c 0214 debd 56b9 d7bd d533 08bd
000003a0: 0c3b 2c38 a83d 5fbc a93f b73d 8684 82bd
000003b0: 69e2 1f3d 35a5 6dbb 66a5 96bd e3eb 2b3d
000003c0: f6ec 6dbd c667 68bb c450 fcbc 9f20 96be
000003d0: bf10 93bc e0d1 9ebd bb5f 033e 702f 0dbd
000003e0: ebef e1bb 0f02 133b 7273 24bd 3438 38be
000003f0: b864 d83d 162a d33d ff64 d1bd efe5 92bc
0.016389653 0.0037094387 0.033177543 0.0438838 -0.04449557 0.04043772 0.09250907 0.029092874
-0.13026257 -0.0136328135 0.06292451 0.04240194 -0.028658066 0.020460345 -0.091303125 -0.039847504
-0.12906079 0.080835775 -0.17687319 -0.028380236 0.39131406 0.10511134 0.011168959 0.10456848
-0.04342536 -0.112962075 0.09489417 0.19201678 0.09344396 0.08950566 0.1893982 0.07820303
-0.10578783 0.054563805 -0.04311125 -0.08837756 -0.056589067 -0.08608818 -0.068615064 0.12131385
0.05841826 -0.04251906 0.10259207 -0.048003405 0.30213863 -0.00076240837 -0.17775396 -0.02613071
-0.079987615 0.13474953 -0.046980917 0.39696413 0.11558405 0.057986207 0.08931624 -0.061147545
0.11445393 -0.08324862 0.07405917 0.011450409 0.14192419 0.06703649 0.054317486 0.024240494
-0.04879322 -0.004409512 0.07903171 -0.019037249 0.043070026 -0.07373368 0.11663213 0.08765774
-0.24729447 0.036322456 -0.04546536 -0.06425861 -0.13190012 0.11081548 0.0049437196 -0.09438347
0.018461553 -0.13052517 -0.06677753 0.04862695 0.03757166 -0.11561938 0.011115239 -0.034758195
0.107334964 -0.07517805 -0.026818119 -0.054228406 0.019244315 -0.12971519 -0.026783021 -0.02899013
-0.0020390556 0.03968316 0.05778385 -0.026123688 -0.027077902 -0.063238 0.054315474 -0.06518437
-0.0116893295 -0.07763869 -0.03755676 -0.06331367 -0.036026247 0.07445171 -0.11884099 -0.09371271
-0.049609307 -0.016933536 -0.01915007 0.0030584561 -0.018848717 0.021045078 -0.100749925 0.024376899
0.06842035 0.102259725 -0.10661792 -0.06292637 0.20153034 0.09169579 0.09675674 0.14091039
0.012110968 0.10221603 0.10489656 0.0074176937 -0.095437616 -0.06452802 0.096608706 -0.016447075
0.051631924 -0.04096163 -0.11405333 -0.08241929 0.015694998 -0.11260169 -0.04054536 0.1288059
-0.0603289 0.06643943 -0.02093455 -0.11721722 0.057225727 -0.07365097 0.0195587 -0.025340745
-0.16924259 0.07986185 0.023729974 -0.040640246 -0.058415644 0.036811236 0.30330983 -0.081645705
0.17541288 0.10950426 0.0775069 0.08802967 0.042320445 0.07798431 0.076806106 0.11975546
0.10966679 -0.0032388377 -0.0020567044 0.075240694 -0.09141185 -0.10006546 0.047750562 -0.034019638
-0.07849991 0.030768625 0.10887571 -0.09078449 0.0915168 -0.08134118 -0.11059035 -0.6561949
-0.0006153146 -0.0020994414 0.039296385 0.05934526 -0.03223509 -0.038850445 -0.077799715 -0.14282687
-0.02470536 0.03598595 0.08336125 0.1268273 -0.09952771 0.12034527 -0.03586383 -0.08858456
-0.08562552 -0.044005107 0.007475297 -0.09136228 0.11000653 -0.08579936 0.038228694 0.018304078
0.07704168 -0.07705615 9.0882786e-05 0.107399374 0.07927879 -0.085923135 -0.019417215 0.080471866
0.060830828 -0.05386212 -0.03696357 -0.2784157 0.11299501 0.072359316 0.22068451 -0.059152342
0.14902176 0.07820281 0.019049384 -0.12126126 0.019929672 -0.1084366 -0.10533397 -0.033252556
4.1062987e-05 -0.01362554 0.08947689 -0.06372933 0.03903428 -0.00362618 -0.07355766 0.041973006
-0.05808731 -0.0035462244 -0.03080023 -0.29321763 -0.017952321 -0.07754874 0.12829487 -0.034469068
-0.0068950555 0.0022431647 -0.04014916 -0.1799019 0.105660856 0.10310762 -0.102243416 -0.017931907

conv2.bias f4 [32]
00000000: d702 903d 7b1a 93bd 9c11 a1bd 6bd1 3dbd
00000010: fe47 c03c c7cb 883b 61d6 31bd a9da 4d3d
00000020: 9756 e5bc b66c 9eba 32fe b33d f558 693d
00000030: b32d 0e3d 1084 53bd 42d4 963d b561 d93d
00000040: 07ec 42bd bc52 81bc bb4d 943d a649 eb3b
00000050: d5f1 e73d 8f17 253d 69c5 c6bd 7759 c1bc
00000060: 4055 403d 30f8 8f3d f946 603d 669e 623d
00000070: 7eae 39bc 0cf4 87bd d6fb 153d 0057 6b3d
0.07031792 -0.07182785 -0.07864687 -0.046342295 0.023471829 0.004174683 -0.04341734 0.05025736
-0.02799539 -0.0012086842 0.08788718 0.0569696 0.03471155 -0.051639616 0.07364704 0.10614339
-0.047588374 -0.015786521 0.072413884 0.0071804104 0.11325423 0.04030567 -0.09705622 -0.02360223
0.0469563 0.0702976 0.054755185 0.05532684 -0.011333106 -0.06638345 0.036617123 0.057456017

conv3.weight f4 [3, 32, 5, 5]
00000000: 5630 95bc 35b8 fabc 8e90 153d 6a30 ca3b
00000010: 8dbd ac3c c8e1 66bc 5a78 ac3b 3390 e6bc
00000020: a8bf 71bc 8cdd 443c a726 48bb d08d 1b3d
00000030: 4fbb 6d3c c5b9 293c cd38 753a 9f3e 043d
00000040: 4eca 8c3c e92b 1b3d 7caa e13c 8527 11bd
00000050: 25e8 25bc 6ef4 3d3c 8852 f93c c1b2 143c
00000060: b732 e7ba aa65 f13c fd09 05bd 4b81 be3c
00000070: 8a69 593c df6c b9bb 9b53 6439 8340 d63c
00000080: 0866 ce3c 58f1 823c 0598 b73b d4c3 fb3c
00000090: fa94 06bd 3055 dfbc 72dd b0bc 1d21 efb9
000000a0: cedb f73c 3533 1fbb d465 b7bc 5e2d c6bc
000000b0: 545a a53c 4090 d83b aca2 083d 96c2 f93c
000000c0: a16c 80bc dfed c83c 5e77 ae3c 2107 273c
000000d0: e07b f6ba df51 9d3a d5d5 5fbc a788 3d3c
000000e0: c3e5 a83c 5026 903b 0871 653d f442 443d
000000f0: e25c 32bd f227 21bd 0d3d 4f3c 010e 36bc
00000100: 40ee 51bd fc4f 52bc db65 d5bc 9a7b 38bc
00000110: b0ab c43c 61c1 fdbb 8d6b 7f3c 6e76 323d
00000120: 3d52 71bb 15b0 403c ea73 383d 4490 04bd
00000130: 8102 ad3c fcf7 84bb a1be 7f3d 5e12 3fbb
00000140: 63b6 65bd c6b0 243d afb2 233d ebcc 103d
00000150: 4ba2 81bc d040 b23a bf99 a53d 83e5 203d
00000160: 1fd4 0dbc 514b bd3c b2e2 2cbc 9f06 ec3c
00000170: 4f3b 8c3d 8fd3 34bc 9034 31ba f9cc 99bc
00000180: 4ebd fa3c a1c5 8b3b 965b 99bc 75be 363c
00000190: d815 febc 1870 6e3c 6d3f e03c 8cb7 3f3b
000001a0: a792 373d 9de7 f6bc ceaa 80bc 5903 773b
000001b0: c8f3 1cbd 76cf a2bb 3ec1 233d fd71 173c
000001c0: 91ed da3c 69b7 7b3c 5f89 893c a27d 393d
000001d0: 46dd 82bc 427f fc3c e0d3 37bd 0cc3 3939
000001e0: 99b1 19bd ace9 4dbc 6283 0abd cd1a 863a
000001f0: 32ec 173d 591c a7bd 45db d63b c184 d73d
00000200: 88a7 003d a153 d2bc 091c 5e3d a804 63bd
00000210: 2144 793d d33d 0abd 1585 033b 09f8 bf3c
00000220: 190a 9e3d f4fe 8f3d 70eb b83c b120 1a3d
00000230: e37c 83bc dff9 58bd 92ec 03bd 93c9 383c
00000240: 4ded 0c3d 162a 83bc 86bf 633c 7a83 6c3d
00000250: 97e5 2fbd 1476 98bd beb3 20bd a45a 843d
00000260: 40c6 75bd f8cd ca3d b1c2 f73d 51dd 833d
00000270: fbad 9bbd 62ff 6e3b 707a 6abd 6a8e 36bd
00000280: 2a2f 0f3d e3b7 d4bd a904 183e c9f0 27bd
00000290: 5d56 c53c e57a 65ba 7cc8 26bd 4c73 17bd
000002a0: 7ed2 94bd 4737 303c fa74 d23c badd 273d
000002b0: 147b 97bc 01f1 203e 59f9 bbbd 945f b73c
000002c0: 0ae3 e63c 4314 2e3c d759 fcbc 29c6 acbc
000002d0: 74e5 833c 56bd e1b8 5f5a 1a3d 6ca6 be3c
000002e0: f519 b4bc c5e5 ef3c 746e 0cbc e7fd 9a3b
000002f0: 92a7 a2ba b77f 2a3d 1f4d 413c 5081 e53c
00000300: b87b d6ba 8fb0 a63c 9c9a 143c 827c f7bc
00000310: 2af4 bb3c 21a0 183d ad52 d23c 3f93 7cba
00000320: 04e5 513d 0774 1fbc 42d6 973c d8fd 47bd
00000330: c518 943d e3d1 353e 5b9a 96bd 4c57 29bd
00000340: 344b 5ebd 72e7 3c3e be98 97bc 32d4 c1bd
00000350: 0fca 57bb d81b 643d 0816 febc 2a03 3c3d
00000360: 9ca1 3bbe aa91 15be 794b 0fbe 242c 65be
00000370: 5bf6 7c3d d23a 583e ba62 a1bb f9d5 c33c
00000380: 6b77 663e f090 953c e54d ed3c 845a 6fbd
00000390: 3a78 dcbc eaf3 1b3b 97a1 773d 40f8 87bb
000003a0: 78d4 24bc 25f3 62bd 7ded 15bc 3a32 86bb
000003b0: 4dd8 ecbc 072d 8c3d a3fa e5bc bdb0 323c
000003c0: fde2 1c3d e14f 23bd b289 76bd 3e8c c0bc
000003d0: 8dc7 0e3d 149a fe3c d207 d63c e960 b93d
000003e0: bd80 c0bc 8b2a 7a3d b2a1 123d 2a7f f13c
000003f0: 13fd b53c 638f 0dbc 3ffa 47bc 52d5 54bb
-0.018211525 -0.030605415 0.03651481 0.006170322 0.021086479 -0.014091916 0.0052633705 -0.028144931
-0.014755167 0.0120157115 -0.0030540617 0.03797704 0.01450999 0.010359232 0.0009354472 0.032286283
0.01718631 0.037883673 0.027547114 -0.03543808 -0.010126148 0.011593921 0.030434862 0.009075821
-0.0017639016 0.029467423 -0.03248023 0.023255011 0.013269791 -0.0056587304 0.0002177492 0.026153808
0.025195137 0.015984222 0.005602839 0.030733027 -0.03285692 -0.0272623 -0.021589968 -0.00045610304
0.030256178 -0.0024291996 -0.022387423 -0.024191555 0.020184673 0.006608993 0.03335826 0.030488294
-0.015676798 0.024527488 0.021297153 0.010194571 -0.0018805228 0.0012002549 -0.013661821 0.011568225
0.020617371 0.0043990985 0.056015998 0.047915414 -0.04354561 -0.039344735 0.012648833 -0.011111737
-0.051252604 -0.012836453 -0.026049545 -0.011259938 0.024007648 -0.007744 0.015589607 0.043569975
-0.00368227 0.011760731 0.04503242 -0.032364145 0.021119358 -0.0040578824 0.062437657 -0.0029155235
-0.05608214 0.040207647 0.039965328 0.035351675 -0.015824458 0.0013599638 0.08085965 0.03928138
-0.008656531 0.023107203 -0.010552095 0.028811751 0.0684725 -0.011036768 -0.00067598466 -0.018774496
0.030607846 0.0042655026 -0.01872043 0.011153807 -0.031016275 0.014553092 0.027373994 0.002925369
0.044817593 -0.030139739 -0.015706446 0.0037691204 -0.038318425 -0.004968579 0.039979212 0.0092434855
0.026724609 0.015363553 0.016789136 0.04528583 -0.015974652 0.0308224 -0.044879794 0.00017715635
-0.037522886 -0.012567919 -0.033816703 0.0010231376 0.037090488 -0.08159704 0.0065569007 0.10523368
0.03140977 -0.025674643 0.054225955 -0.055424362 0.06085599 -0.033750366 0.0020068337 0.023433702
0.0771677 0.0703105 0.022573203 0.037628833 -0.016050762 -0.05297267 -0.032208033 0.011278528
0.034405995 -0.01601128 0.013900643 0.057742573 -0.042943563 -0.074443966 -0.039233916 0.06462601
-0.06000352 0.09902567 0.12097681 0.06438697 -0.076015435 0.0036468138 -0.05724567 -0.04456941
0.03495709 -0.10386636 0.14845528 -0.041001115 0.024089033 -0.00087539695 -0.04071854 -0.03697519
-0.07266711 0.010755367 0.025690544 0.04098294 -0.018491305 0.15716936 -0.09178419 0.022384442
0.028184433 0.010624948 -0.030804558 -0.021090584 0.016100623 -0.000107641026 0.03768384 0.023272716
-0.021985034 0.029284367 -0.008571256 0.0047299745 -0.0012409559 0.041625705 0.011798172 0.028015763
-0.0016363775 0.020347862 0.009070065 -0.030210737 0.022943575 0.037262086 0.025674189 -0.00096349785
0.051243797 -0.009732253 0.018534783 -0.04882607 0.07231287 0.17755847 -0.0735366 -0.04134302
-0.054270938 0.18447664 -0.01850545 -0.09464301 -0.0032926833 0.055690616 -0.031016365 0.045901455
-0.18323368 -0.14606348 -0.13993634 -0.2238012 0.06175838 0.21116188 -0.004925099 0.023905741
0.22506492 0.018257588 0.028967807 -0.05843593 -0.026912797 0.0023796507 0.06045684 -0.0041494668
-0.010060422 -0.055407662 -0.00915086 -0.004095343 -0.028911734 0.06844526 -0.028073614 0.0109063955
0.03830241 -0.0398711 -0.06018991 -0.023504373 0.034858275 0.03107933 0.026126776 0.09051687
-0.023498887 0.06107573 0.035798736 0.029479582 0.022215402 -0.008640143 -0.012205659 -0.0032475782

conv3.bias f4 [3]
00000000: 91fd dd3c 5056 d43c a7b3 a3bc
0.027098449 0.025920063 -0.019983126
